ubuntu@ip-172-31-91-197:~$ python mnist.py
Using TensorFlow backend.
x_train shape: (60000, 28, 28, 1)
60000 train samples
10000 test samples
_________________________________________________________________
Layer (type)                 Output Shape              Param #
=================================================================
conv2d_1 (Conv2D)            (None, 24, 24, 32)        832
_________________________________________________________________
max_pooling2d_1 (MaxPooling2 (None, 12, 12, 32)        0
_________________________________________________________________
conv2d_2 (Conv2D)            (None, 10, 10, 64)        18496
_________________________________________________________________
max_pooling2d_2 (MaxPooling2 (None, 5, 5, 64)          0
_________________________________________________________________
dropout_1 (Dropout)          (None, 5, 5, 64)          0
_________________________________________________________________
flatten_1 (Flatten)          (None, 1600)              0
_________________________________________________________________
dense_1 (Dense)              (None, 512)               819712
_________________________________________________________________
dense_2 (Dense)              (None, 128)               65664
_________________________________________________________________
dense_3 (Dense)              (None, 50)                6450
_________________________________________________________________
dropout_2 (Dropout)          (None, 50)                0
_________________________________________________________________
dense_4 (Dense)              (None, 10)                510
=================================================================
Total params: 911,664
Trainable params: 911,664
Non-trainable params: 0
_________________________________________________________________
Train on 60000 samples, validate on 10000 samples
Epoch 1/30
2017-11-18 12:50:11.715760: W tensorflow/core/platform/cpu_feature_guard.cc:45] The TensorFlow library wasn't compiled to use SSE4.1 instructions, but these are available on your machine and could speed up CPU computations.
…
